2D_examples/example_2d.ckpt (torch, 5579 bytes, 6 tensors)

func.fc1._layer.weight f4 [6, 6]
00000000: dedd e53e 20b7 1d3f 66f3 863f 1a98 003f
00000010: a6bd 3a3f 5fe2 423f 38e8 0c3f ef6d 173f
00000020: 48d4 033f b468 f23e 6794 b43e c1cf 623f
00000030: 82e0 3cbf 9171 11bf f61e 13be 29fc afbe
00000040: 2a2d 50bf cc16 01bf c837 2abf cdcc 18bf
00000050: 27ce b1bd fffb 58bf 1e0f 40be 4cda 15bf
00000060: 3238 64bf 7dd9 48bf 6a5a 29bf 53ac f6be
00000070: 97e8 23bf 5bab 4bbe c86c 44bf a5c8 f2be
00000080: 20ab 9bbe 630c e2be c941 2abe 9b5a b5be
0.44895834 0.6160755 1.0543029 0.5023209 0.7294563 0.76126665 0.5504184 0.5915212
0.5149579 0.47345507 0.35269472 0.8859826 -0.7378007 -0.56813914 -0.1436728 -0.3437207
-0.81318915 -0.5042541 -0.66491365 -0.596875 -0.086818986 -0.84759516 -0.18755767 -0.5853622
-0.8914825 -0.7845686 -0.66153586 -0.48178348 -0.6402678 -0.19889586 -0.76728487 -0.47418705
-0.30403996 -0.44150075 -0.16626658 -0.3542069

func.fc1._layer.bias f4 [6]
00000000: 1b8e 623f 3757 2a3f f917 2abe 4c32 66bf
00000010: 2e21 1dbf 3070 a6be
0.88498086 0.6653933 -0.16610707 -0.89920497 -0.61378753 -0.32507467

exp_avg f4 [6, 6]
00000000: ab10 94b7 acc3 93b7 1e8b f3b2 987d 72b2
00000010: ef33 eab1 bda9 edb2 ea5d 7ab7 e2dc 79b7
00000020: 144c dab2 50bd 56b2 d3f3 c2b1 d7ac d5b2
00000030: 31a4 e438 fd28 e438 7cf5 7e34 0656 f233
00000040: 7f47 3233 cec2 7b34 427c d937 d006 d937
00000050: d4a9 7533 081d e932 1286 2932 a3ae 7233
00000060: 2cf1 8f35 fda2 8f35 9095 2331 ab3b 9b30
00000070: cadb e12f 9498 2131 cfd5 e738 6158 e738
00000080: f799 8234 0703 f833 e51a 3533 9eff 8034
-1.7650736e-05 -1.7614882e-05 -2.8352186e-08 -1.4114811e-08 -6.8162005e-09 -2.766762e-08 -1.4923027e-05 -1.4892985e-05
-2.5413136e-08 -1.2499484e-08 -5.6738627e-09 -2.4875062e-08 0.0001090247 0.00010879522 2.37449e-07 1.1284651e-07
4.150888e-08 2.3447066e-07 2.5926278e-05 2.5871588e-05 5.7197965e-08 2.7137972e-08 9.867579e-09 5.6503847e-08
1.072452e-06 1.0701766e-06 2.3804638e-09 1.1294693e-09 4.108343e-10 2.3515314e-09 0.00011054763 0.000110314
2.432641e-07 1.15489506e-07 4.2166807e-08 2.4027844e-07

exp_avg_sq f4 [6, 6]
00000000: 44ff b23a b96f ca3a 8b8f 2835 3507 9434
00000010: 78ca 1133 3289 6535 4cc7 de3a 27b7 f33a
00000020: 244e a835 1f32 1f35 b210 a633 1545 e035
00000030: 0750 0237 5e34 0c37 25b2 4433 5fba cb32
00000040: d5b2 6f31 24ed 7d33 6949 5836 f5b2 6836
00000050: 34a9 9332 a3c6 1832 e194 b330 3898 be32
00000060: 3522 3234 b8b1 3d34 893d 4c30 b721 d42f
00000070: bb60 7c2e 3b53 8330 da5e 1337 8942 1f37
00000080: 0997 7a33 f7a7 0133 58f0 9731 90fc a133
0.0013656397 0.0015444673 6.279376e-07 2.7572392e-07 3.3944588e-08 8.5508793e-07 0.0016996651 0.0018594012
1.2539717e-06 5.930505e-07 7.733014e-08 1.6709406e-06 7.767237e-06 8.356843e-06 4.5796828e-08 2.3717062e-08
3.4880732e-09 5.912183e-08 3.2229239e-06 3.467486e-06 1.7189997e-08 8.892729e-09 1.3066278e-09 2.2188132e-08
1.6589986e-07 1.766665e-07 7.4302214e-10 3.858653e-10 5.738408e-11 9.55516e-10 8.783967e-06 9.49263e-06
5.8345027e-08 3.0187916e-08 4.4220023e-09 7.5430876e-08

exp_avg f4 [6]
00000000: 59bb 06b7 10a1 ddb6 c85a 3338 c946 2937
00000010: 66b4 df34 bfdb 3438
-8.030643e-06 -6.6050634e-06 4.2761472e-05 1.0089666e-05 4.1668244e-07 4.312e-05

exp_avg_sq f4 [6]
00000000: 902c 6c39 a583 8f39 39bc f235 f11a 4b35
00000010: bb11 2833 503b 0836
0.00022523315 0.00027373168 1.8085185e-06 7.56626e-07 3.9131674e-08 2.0300104e-06
